mouse.pt (torch, 273979 bytes, 8 tensors)

lstm.weight_ih_l0 f4 [512, 2]
0.046876222 -0.093155295 -0.06974765 -0.06731903 -0.018370071 0.01629339 -0.13578351 0.0076425765
-0.12393883 -0.063233875 -0.008791044 0.06321753 -0.11081174 -0.061784625 -0.0002709606 0.06535147
-0.16444688 -0.014267676 -0.11356262 -0.029025126 0.009806604 -0.03734795 0.107449375 -0.11282869
-0.10762984 0.1016666 -0.03899593 0.011031081 -0.12999801 0.005414008 -0.06642957 -0.049794834
-0.028862188 0.024471417 -0.14119007 0.060633045 -0.12969172 -0.023302194 -0.07104371 -0.12027688
-0.12428307 0.029815683 0.0027861886 0.1576413 -0.04647248 0.016518416 0.07498623 -0.023014504
-0.16719015 0.054763407 0.12884046 -0.07032134 0.11544795 0.07672645 0.07296593 0.04245405
-0.072268106 0.03699849 -0.07484491 0.06383047 0.07328739 0.042466193 0.13990991 -0.03589163
0.024220133 0.015107365 -0.059760414 0.10247877 0.017348418 0.029976241 0.062100615 0.033446778
-0.048101127 -0.00808667 -0.12488379 -0.07453331 0.02955296 -0.019992257 0.116414435 -0.074751765
0.117827594 0.043597654 -0.14166674 0.0030161852 0.006541654 -0.05701539 -0.037355367 -0.056869786
-0.052991126 -0.0022515887 0.12337586 -0.053747572 -0.14167106 -0.056483902 -0.08034544 0.0044137225
-0.013384804 -0.042552773 -0.026768535 0.063470796 0.0072248466 -0.10741665 0.05363804 -0.012918929
-0.16285582 0.023013609 0.098530464 0.045523897 0.043761242 -0.011259919 -0.10359492 0.032383487
0.039251916 0.021366393 -0.05067006 -0.087155625 -0.0022946487 -0.04656999 -0.045402247 0.04009801
-0.08461883 0.01687769 -0.1879464 0.041016825 -0.031810146 0.043483645 -0.13028713 -0.059369646
-0.07971019 0.047146294 0.054641332 -0.0031606986 0.012544604 0.07353901 -0.08003856 -0.02328741
-0.010455213 0.05245373 0.12864175 0.04839786 0.07170798 0.25626278 -0.060308944 0.08001107
0.062973104 -0.028157141 -0.017163735 0.019540511 0.0019765825 0.074222445 0.0071757017 -0.025876984
0.027358048 -0.04118132 -0.10077364 0.08841351 -0.093199335 0.109469764 0.031061154 0.10170905
-0.14867069 -0.07522192 -0.09767324 0.006924647 -0.06856033 0.03446689 -0.11051297 -0.07002924
-0.12459116 -0.0073000016 0.058849987 -0.061878666 0.017374177 -0.009642924 0.05346776 -0.13515148
0.030235186 0.12133298 -0.051046606 0.041291505 0.023607196 -0.03542155 0.044567265 -0.034417044
-0.07697904 0.08330971 0.05805176 0.037327833 0.044457868 -0.09599064 -0.004902247 -0.028334076
-0.036762513 -0.04562725 0.022838535 -0.08373066 -0.107362434 0.13089597 0.07207858 0.033576205
-0.014439092 0.0045503895 -0.1755066 0.049394816 0.01232119 0.04912575 -0.08481574 0.026477652
-0.034076083 -0.05118434 0.015694622 0.012124517 0.083193354 0.022831919 0.0020255742 0.006685241
-0.0009559661 0.06433109 -0.02075478 0.0708918 -0.0046438207 0.017595295 -0.12145248 -0.011415496
-0.09674204 0.13066323 0.017813561 0.057944704 -0.11794295 -0.05153919 0.06923293 0.006646625
-0.10158398 -0.025466824 0.013331254 0.0051850444 -0.13513996 -0.030693874 -0.04685008 -0.024603646
-0.017107593 0.07006244 -0.01801726 -0.07471561 0.002205703 -0.0775017 -0.16339566 -0.10725598
-0.031345576 0.07406342 -0.07014396 -0.041055076 -0.02738218 -0.10027446 -0.03775481 0.015258625
00000000: 4801 403d 34c8 bebd dbd7 8ebd 8fde 89bd
00000010: d57c 96bc b779 853c d50a 0bbe 946e fa3b
00000020: a4d3 fdbd c380 81bd 5008 10bc 3178 813d
00000030: 44f1 e2bd e011 7dbd b70f 8eb9 fed6 853d
00000040: c364 28be f8c2 69bc 8593 e8bd 1ac6 edbc
00000050: e1ab 203c 2afa 18bd 6b0e dc3d ba12 e7bd
00000060: 096d dcbd 9436 d03d 32ba 1fbd b5bb 343c
00000070: 331e 05be fe67 b13b 3a0c 88bd abf5 4bbd
00000080: 6570 ecbc 4878 c83c 2194 10be 5b5a 783d
00000090: e8cd 04be 3ee4 bebc 5d7f 91bd ba53 f6bd
000000a0: 1f88 febd 0540 f43c 7d98 363b b96c 213e
000000b0: ed59 3ebd a151 873c 6192 993d ea88 bcbc
000000c0: e533 2bbe 984f 603d c1ee 033e a204 90bd
000000d0: fa6f ec3d c222 9d3d 296f 953d 4ce4 2d3d
000000e0: 4d01 94bd bb8b 173d 4a48 99bd 8db9 823d
000000f0: b317 963d 08f1 2d3d 8b44 0f3e 1a03 13bd
00000100: 4d69 c63c e284 773c 56c7 74bd 64e0 d13d
00000110: 451e 8e3c bc90 f53c 375d 7e3d 7dff 083d
00000120: b005 45bd f47d 04bc 13c3 ffbd eca4 98bd
00000130: 0d19 f23c cdc6 a3bc b16a ee3d 7417 99bd
00000140: 984f f13d 7493 323d 1611 11be 31ab 453b
00000150: 5f5b d63b f888 69bd f101 19bd 4bf0 68bd
00000160: 390d 59bd 648f 13bb 7cac fc3d 6a26 5cbd
00000170: 3812 11be aa5b 67bd 268c a4bd fda0 903b
00000180: f04b 5bbc d14b 2ebd b049 dbbc fafc 813d
00000190: 68be ec3b 43fd dbbd 90b3 5b3d eaa9 53bc
000001a0: adc3 26be 0987 bc3c 57ca c93d 4477 3a3d
000001b0: fd3e 333d 867b 38bc 9329 d4bd 8ca4 043d
000001c0: 9ec6 203d 9308 af3c 698b 4fbd a67e b2bd
000001d0: d161 16bb 2dc0 3ebd b5f7 39bd d03d 243d
000001e0: a34c adbd 1543 8a3c 0575 40be 4201 283d
000001f0: 5b4b 02bd e81b 323d fd69 05be 962d 73bd
00000200: 193f a3bd 791c 413d 97cf 5f3d b923 4fbb
00000210: e287 4d3c 9f9b 963d 42eb a3bd 3dc5 bebc
00000220: 574c 2bbc b9d9 563d aaba 033e d63c 463d
00000230: a2db 923d e034 833e 8306 77bd d8dc a33d
00000240: 0bf8 803d cea9 e6bc f69a 8cbc 6c13 a03c
00000250: 8d89 013b f001 983d 2622 eb3b f8fb d3bc
00000260: fc1d e03c bead 28bd 6962 cebd 2412 b53d
00000270: 4bdf bebd af31 e03d f673 fe3c d64c d03d
00000280: 213d 18be f30d 9abd e808 c8bd 26e8 e23b
00000290: 5c69 8cbd 272d 0d3d a054 e2bd 7d6b 8fbd
000002a0: a629 ffbd da34 efbb af0c 713d 7c74 7dbd
000002b0: 4a54 8e3c 5bfd 1dbc 0301 5b3d 2665 0abe
000002c0: c8af f73c 6d7d f83d 3f16 51bd 4821 293d
000002d0: e163 c13c 3016 11bd 2a8c 363d e3f8 0cbd
000002e0: 30a7 9dbd 489e aa3d afc7 6d3d 12e5 183d
000002f0: 7419 363d be96 c4bd 07a3 a0bb dd1c e8bc
00000300: 4a94 16bd a4e3 3abd e117 bb3c fb7a abbd
00000310: d6e0 dbbd 9809 063e ef9d 933d 3487 093d
00000320: f191 6cbc 6f1b 953b 01b8 33be 3852 4a3d
00000330: d1de 493c 1538 493d e0b3 adbd a9e7 d83c
00000340: 5d93 0bbd aca6 51bd 0292 803c e9a5 463c
00000350: 4761 aa3d 010a bb3c 7fbf 043b de0f db3b
00000360: cd99 7aba 05c0 833d ee05 aabc b82f 913d
00000370: 312b 98bb 0224 903c 14bc f8bd 0f08 3bbc
00000380: b120 c6bd 95cc 053e bfed 913c 6d57 6d3d
00000390: 138c f1bd c21a 53bd ffc9 8d3d efcb d93b
000003a0: 430b d0bd cd9f d0bc 556b 5a3c 4ee7 a93b
000003b0: 2162 0abe b871 fbbc dfe5 3fbd 968d c9bc
000003c0: 3925 8cbc e67c 8f3d ef98 93bc 7f04 99bd
000003d0: 8e8d 103b 36b9 9ebd 3151 27be 06a9 dbbd
000003e0: 3864 00bd 90ae 973d a3a7 8fbd 5e29 28bd
000003f0: 9850 e0bc b25c cdbd caa4 1abd 50ff 793c

lstm.weight_hh_l0 f4 [512, 128]
-0.07500573 0.012504213 0.018583981 0.07408903 0.0083629815 0.05142528 -0.033305064 -0.044890027
0.018402722 0.037764933 -0.058615725 0.026288435 -0.063671604 -0.06062163 0.06320255 0.05763182
0.032278445 -0.0685767 -0.0032178003 -0.015171363 -0.056423753 -0.027473604 -0.08143724 0.011417798
0.09025973 0.095466845 -0.019549727 -0.017859695 -0.00788087 -0.04431926 0.047894083 0.037914068
0.03704342 0.008024739 0.02929211 0.051987924 -0.05715363 0.06682137 0.03248785 -0.085583575
-0.072850905 0.021929363 0.07027378 -0.053670034 -0.014583958 0.07769995 -0.05203675 0.051062066
-0.08121443 0.0015092547 0.05994237 0.016849203 -0.051678304 0.092118636 0.044609725 0.022515796
0.08782947 0.08115578 0.060000017 -0.049527284 -0.06241056 -0.081959166 0.020313594 -0.010473927
0.021295795 -0.015917832 -0.042338457 0.023621025 -0.0064329132 -0.055586383 -0.032861244 -0.047083516
0.04824174 -0.046952292 -0.01395064 -0.052902468 0.05186626 0.036390595 0.07869652 0.07276979
0.050764687 0.040135767 -5.9498216e-05 0.006110655 0.027287355 -0.029597715 0.025215719 0.011749492
-0.052562695 0.00971821 0.03529368 -0.075985 -0.046734393 -0.052170638 0.047293454 -0.04531082
0.075310774 -0.0003268915 0.061952993 -0.0515033 0.07754862 0.03294378 0.037616324 0.084727764
0.049534976 -0.0694268 -0.009812623 -0.06849548 -0.030900896 -0.09360974 -0.037484612 0.051640227
0.054038472 -0.06299716 -0.088862054 -0.06522114 0.007952034 0.060595687 0.020707574 -0.07405456
0.043790385 -0.039629675 0.0029918835 0.06671672 -0.009581014 -0.027273532 0.044481944 0.019459555
-0.06563743 -0.0003732625 0.09688549 0.035960957 0.023793984 -0.031099768 0.026235295 0.021709409
-0.026823055 0.037655257 -0.018632941 0.021052621 -0.032967415 0.032955278 -0.088698685 0.048568394
-0.003122148 -0.009356885 0.016448047 0.023338707 -0.08444972 0.061791264 -0.05055182 -0.08198844
-0.04344437 0.021478625 -0.042864867 0.08531779 -0.059665218 -0.07978175 0.04014417 0.054896463
0.008685531 0.07435113 0.0110988375 0.07651395 0.045475684 0.012978203 0.05139673 -0.036694888
0.09038535 0.058212522 0.009454785 0.011879471 -0.0725674 -0.023530582 0.04531231 -0.031623866
0.016932257 0.07301172 -0.04081326 -0.03946298 0.060561456 -0.019670423 0.08778333 -0.072703846
-0.06911336 0.006066784 -0.04591878 0.07720537 0.07124202 0.079214245 -0.059849363 0.056056973
0.011637363 -0.0746178 0.0082102055 0.07559355 -0.04332779 0.006800882 0.050613727 0.046346426
-0.0043300884 -0.011460709 -0.031082204 -0.07318836 -0.034552544 0.005310345 0.08840179 0.036178764
0.079508126 0.08231847 0.04454107 0.04930381 -0.050569866 -0.044755 -0.069483384 0.075621784
0.054551944 0.03810863 0.0298337 0.050011095 0.028600208 -0.075318515 0.07836772 0.013648343
-0.08408558 -0.048137214 -0.006039848 -0.018006638 -0.032675993 -0.04467368 0.068949535 -0.0029573052
-0.056336906 0.051130094 0.060104612 -0.044847388 0.082324825 -0.06501166 0.033692032 -0.018167417
0.03158027 -0.029228749 -0.07950924 -0.07090112 -0.04360524 0.063417524 0.07420642 0.015098047
0.034877494 0.031341724 -0.015735004 -0.019478828 -0.05146734 -0.020545123 0.0793223 -0.019133506
00000000: 9b9c 99bd 78de 4c3c 6f3d 983c fdbb 973d
00000010: e304 093c 50a3 523d e46a 08bd 9bde 37bd
00000020: 4ec1 963c 67af 1a3d 0b17 70bd d85a d73c
00000030: 4266 82bd 634e 78bd 5770 813d 580f 6c3d
00000040: 6736 043d f171 8cbd bbe1 52bb 4f91 78bc
00000050: 981c 67bd 5310 e1bc 91c8 a6bd b711 3b3c
00000060: 18da b83d 1f84 c33d c026 a0bc 7f4e 92bc
00000070: c41e 01bc 1d88 35bd 962c 443d c84b 1b3d
00000080: d7ba 173d 327a 033c 02f6 ef3c 4af1 543d
00000090: ed19 6abd a4d9 883d fb11 053d 7146 afbd
000000a0: db32 95bd 35a5 b33c b3eb 8f3d 1cd5 5bbd
000000b0: 8ef1 6ebc 2721 9f3d 7d24 55bd 7526 513d
000000c0: c053 a6bd 2fd2 c53a 2186 753d 5707 8a3c
000000d0: a1ac 53bd b2a8 bc3d b0b8 363d 0c73 b83c
000000e0: f0df b33d 0035 a63d 94c2 753d 1fdd 4abd
000000f0: 37a2 7fbd 35da a7bd b268 a63c d59a 2bbc
00000100: 8574 ae3c 1d66 82bc 176b 2dbd e180 c13c
00000110: 30cb d2bb 8cae 63bd 8399 06bd a5da 40bd
00000120: 2199 453d 0c51 40bd 3a91 64bc 42b0 58bd
00000130: b771 543d 4e0e 153d a42b a13d 5408 953d
00000140: a2ee 4f3d 6765 243d b98d 79b8 e43b c83b
00000150: bb89 df3c e876 f2bc 3291 ce3c f180 403c
00000160: fb4b 57bd 2139 1f3c 1b90 103d 069e 9bbd
00000170: 906c 3fbd e1b0 55bd c8b6 413d d797 39bd
00000180: 893c 9a3d a262 abb9 6cc2 7d3d 20f5 52bd
00000190: d0d1 9e3d 0ff0 063d 9313 1a3d c085 ad3d
000001a0: 30e5 4a3d a32f 8ebd 20c5 20bc 5c47 8cbd
000001b0: e023 fdbc 77b6 bfbd 7789 19bd b484 533d
000001c0: 7257 5d3d a804 81bd 4ffd b5bd a992 85bd
000001d0: 3f49 023c 2f33 783d eea2 a93c eba9 97bd
000001e0: 8c5d 333d ba52 22bd 7a13 443b c7a2 883d
000001f0: aff9 1cbc be6c dfbc b332 363d a569 9f3c
00000200: eb6c 86bd 72b2 c3b9 e66b c63d cc4b 133d
00000210: 9aeb c23c f1c4 febc 67eb d63c eed7 b13c
00000220: 06bc dbbc 663c 1a3d 1ca4 98bc 8c76 ac3c
00000230: d708 07bd 1dfc 063d a8a7 b5bd a7ef 463d
00000240: f49c 4cbb 9f4d 19bc 0ebe 863c d130 bf3c
00000250: faf3 acbd d618 7d3d 6d0f 4fbd 8ee9 a7bd
00000260: b9f2 31bd f1f3 af3c 1293 2fbd 18bb ae3d
00000270: 8463 74bd 9d64 a3bd 376e 243d 1ddb 603d
00000280: c24d 0e3c 6845 983d e6d7 353c 59b3 9c3d
00000290: b644 3a3d 87a2 543c 6185 523d 614d 16bd
000002a0: f41b b93d 4170 6e3d 3ee8 1a3c 1da2 423c
000002b0: 389e 94bd 35c3 c0bc 6799 393d 0788 01bd
000002c0: 84b5 8a3c 2b87 953d ce2b 27bd efa3 21bd
000002d0: 4a0f 783d de23 a1bc bfc7 b33d c1e5 94bd
000002e0: 4e8b 8dbd dfcb c63b 5515 3cbd d91d 9e3d
000002f0: 56e7 913d 143b a23d 9b24 75bd ff9b 653d
00000300: a3aa 3e3c 38d1 98bd 1984 063c cbd0 9a3d
00000310: 7b78 31bd efd9 de3b 5750 4f3d c0d5 3d3d
00000320: 6ae3 8dbb b3c5 3bbc 1ba0 febc c7e3 95bd
00000330: f886 0dbd 6702 ae3b ff0b b53d 2f30 143d
00000340: 28d5 a23d 9696 a83d b270 363d cbf2 493d
00000350: 5922 4fbd 0551 37bd 4e4d 8ebd 98df 9a3d
00000360: dc71 5f3d cb17 1c3d ce65 f43c 6fd8 4c3d
00000370: fc4a ea3c 9840 9abd 417f a03d 4d9d 5f3c
00000380: 1035 acbd 872b 45bd ebe9 c5bb a882 93bc
00000390: 43d7 05bd c0fb 36bd 6a35 8d3d 59cf 41bb
000003a0: 87c1 66bd ca6d 513d 4130 763d e5b1 37bd
000003b0: eb99 a83d d524 85bd a800 0a3d d6d3 94bc
000003c0: 505a 013d 2171 efbc bed5 a2bd 9b34 91bd
000003d0: 689b 32bd 0ce1 813d 89f9 973d cd5d 773c
000003e0: b4db 0e3d 2e60 003d b2e6 80bc 1092 9fbc
000003f0: 6bcf 52bd 3f4e a8bc bb73 a23d dfbd 9cbc

lstm.bias_ih_l0 f4 [512]
0.04041704 -0.053944916 -0.04625306 0.049241245 -0.04842427 -0.019176662 0.06933739 -0.01377592
0.006865606 0.044225316 0.061263222 -0.05687338 0.02991779 0.06839922 0.05251048 0.062373716
-0.024065105 0.026611175 0.03302091 -0.06701834 0.09008746 -0.05707716 -0.053470466 -0.07749822
0.034586128 -0.09197103 0.04880338 -0.002437216 0.050009314 -0.029284004 -0.08317345 -0.0620672
-0.07201895 0.06784875 0.033973295 -0.005902714 0.005132671 -0.072696865 -0.046500288 -0.010652119
-0.049804933 0.004940046 -0.045452595 0.029765593 -0.058261465 -0.08955402 0.028269814 -0.026148817
-0.04619867 -0.064486 -0.050693225 0.06435141 0.08875901 0.008314247 -0.026749976 0.07825458
-0.083969146 -0.046106834 -0.022012938 0.06560878 0.011060833 -0.050489217 0.029710036 0.076379135
0.02977174 0.05286974 0.05784211 0.030711845 0.065913424 0.03743036 0.008814456 -0.0026633963
0.050542857 -0.09898193 0.020830309 0.017572846 0.042753916 0.016340801 0.0025356058 0.025380643
-0.04968469 -0.083435886 -0.04905949 0.031109665 -0.033763487 -0.09234666 -0.030182581 0.05126599
-0.0904346 -0.020414962 -0.04293516 0.085384116 0.091922745 0.033721678 -0.00563313 0.006311166
0.0131178945 0.07465882 0.026841998 0.035245866 -0.013859575 -0.0050140084 0.011636354 0.07019819
0.07628597 -0.100745134 -0.0825624 -0.05183814 0.06973984 -0.030991303 0.037432753 0.030331412
0.01623277 -0.09397604 0.08992683 -0.023370417 -0.063338734 0.055562377 -0.061672077 0.056053445
-0.017618427 0.03431507 0.07460699 0.06395225 0.056600302 0.060963865 -0.04258711 0.055153653
-0.06903774 -0.029164348 0.05972526 0.08863703 -0.031350438 -0.057360537 0.0020681287 -0.050820984
0.06583783 0.077693485 0.039180007 -0.018971005 -0.04611137 -0.041678023 -0.06764687 0.056088287
-0.06402384 0.0015884612 -0.040973645 0.036000624 0.08704483 -0.10308249 0.04135354 0.06426262
0.049400903 0.0009430442 -0.097335875 -0.048121527 0.029280787 0.015308541 -0.0045663966 -0.08564458
-0.034538824 0.03973546 -0.042774815 0.0116490405 -0.071519345 -0.0262497 0.041385785 -0.012459721
-0.09530529 -0.022375576 -0.07563816 -0.008671741 0.03533825 -0.02386945 0.04450644 -0.012031405
0.020261956 -0.031372353 0.010000357 -0.073876925 0.047323223 0.024171168 0.013780683 -0.0066530528
-0.010149571 0.030630315 0.059464086 -0.084016986 -0.0068153553 0.028484602 0.0036474208 0.07910249
-0.032756 -0.033610124 -0.0983533 0.067589745 0.059805136 -0.023491435 0.06382132 0.09292702
-0.08920367 0.012769349 0.014735522 -0.015044322 -0.008738637 0.013368858 0.04232681 -0.078824915
0.020794328 -0.0214375 -0.05726485 0.048973575 0.050439507 0.020881306 -0.058376018 0.03306273
-0.019717908 -0.071203224 0.0745211 -0.014340342 0.012107338 0.01904248 0.06788964 -0.089647636
-0.025316855 -0.05828619 0.05662372 0.0074154097 0.0489147 -0.016200365 0.0522841 0.016244
-0.0010830228 -0.09102074 -0.098398134 -0.049621258 0.006930841 -0.05255987 0.00817707 -0.0020945305
0.0755908 -0.04848961 0.06525109 -0.04747203 0.062001243 -0.09206202 -0.01756434 0.0005534521
0.013280282 0.04847761 -0.09718474 0.005864334 -0.04726626 -0.045801014 -0.035578396 0.011114046
00000000: 578c 253d 58f5 5cbd d973 3dbd 30b1 493d
00000010: 8758 46bd 6018 9dbc c300 8e3d 65b4 61bc
00000020: e1f8 e03b 9b25 353d 25ef 7a3d 10f4 68bd
00000030: 2716 f53c e414 8c3d 3b15 573d 957b 7f3d
00000040: 2f24 c5bc aeff d93c ef40 073d e940 89bd
00000050: c67f b83d bdc9 69bd d903 5bbd 63b7 9ebd
00000060: 2faa 0d3d 4f5b bcbd 0ee6 473d b3b9 1fbb
00000070: 91d6 4c3d 02e5 efbc d756 aabd 2d3a 7ebd
00000080: ac7e 93bd 49f4 8a3d 9527 0b3d 8e6b c1bb
00000090: f72f a83b 18e2 94bd 1677 3ebd 3a86 2ebc
000000a0: 4200 4cbd 1ce0 a13b 802c 3abd f9d6 f33c
000000b0: 93a3 6ebd 1968 b7bd 1996 e73c 0b36 d6bc
000000c0: d13a 3dbd 3c11 84bd b3a3 4fbd acca 833d
000000d0: 49c7 b53d 7b38 083c c422 dbbc f043 a03d
000000e0: 04f8 abbd 85da 3cbd 7a54 b4bc e55d 863d
000000f0: 7f38 353c c8cd 4ebd 7662 f33c aa6c 9c3d
00000100: dde3 f33c f18d 583d d9eb 6c3d 6897 fb3c
00000110: 9efd 863d 9450 193d 826a 103c 608c 2ebb
00000120: 0706 4f3d 0ab7 cabd 53a4 aa3c eef4 8f3c
00000130: bb1e 2f3d 25dd 853c 682c 263b 11eb cf3c
00000140: 2c82 4bbd 6fe0 aabd 9bf2 48bd b2d9 fe3c
00000150: 954b 0abd 3f20 bdbd 7641 f7bc 49fc 513d
00000160: c735 b9bd 473d a7bc c7dc 2fbd dedd ae3d
00000170: fe41 bc3d be1f 0a3d 1f96 b8bb e6cd ce3b
00000180: 70ec 563c b9e6 983d c0e3 db3c f85d 103d
00000190: 4513 63bc 8d4c a4bb 68a6 3e3c 12c4 8f3d
000001a0: d23b 9c3d 7753 cebd 7a16 a9bd 3b54 54bd
000001b0: c3d3 8e3d 79e1 fdbc 1653 193d 9579 f83c
000001c0: 96fa 843c 8376 c0bd 8f2b b83d 5173 bfbc
000001d0: bdb7 81bd 6095 633d dc9b 7cbd 4c98 653d
000001e0: 8554 90bc f58d 0c3d 8dcb 983d 66f9 823d
000001f0: b8d5 673d 3fb5 793d d26f 2ebd cce8 613d
00000200: a963 8dbd 12ea eebc 79a2 743d 5587 b53d
00000210: 5169 00bd e2f2 6abd 7189 073b aa29 50bd
00000220: fcd5 863d c31d 9f3d 377b 203d 1569 9bbc
00000230: 47df 3cbd 93b6 2abd 718a 8abd d5bc 653d
00000240: ee1e 83bd ea33 d03a fbd3 27bd 6475 133d
00000250: 8f44 b23d ea1c d3bd 5462 293d 1f9c 833d
00000260: 9a58 4a3d a036 773a 0858 c7bd 141b 45bd
00000270: 43de ef3c add0 7a3c b6a1 95bb 6d66 afbd
00000280: 9578 0dbd a6c1 223d a534 2fbd 9edb 3e3c
00000290: bc78 92bd 9c09 d7bc 2484 293d dc23 4cbc
000002a0: 6b2f c3bd fc4c b7bc 2ee8 9abd eb13 0ebc
000002b0: d7be 103d dd89 c3bc 634c 363d 5f1f 45bc
000002c0: 67fc a53c 4c80 00bd 8ad8 233c c94c 97bd
000002d0: ffd5 413d 9d02 c63c 60c8 613c da01 dabb
000002e0: 634a 26bc 6dec fa3c 9d90 733d 1911 acbd
000002f0: 5853 dfbb 8a58 e93c 9109 6f3b 7c00 a23d
00000300: 282b 06bd c5aa 09bd 746d c9bd 7e6c 8a3d
00000310: 3bf6 743d 1c71 c0bc c1b4 823d 8550 be3d
00000320: 6ab0 b6bd 8836 513c 426d 713c 767c 76bc
00000330: 802c 0fbc 0e09 5b3c e15e 2d3d f56e a1bd
00000340: de58 aa3c b29d afbc 8c8e 6abd 8498 483d
00000350: a899 4e3d 460f ab3c b11b 6fbd c96c 073d
00000360: 7387 a1bc ffd2 91bd 859e 983d c1f3 6abc
00000370: db5d 463c fafe 9b3c b909 8b3d 2e99 b7bd
00000380: 4b65 cfbc 80bd 6ebd 46ee 673d f7fc f23b
00000390: c85a 483d a1b6 84bc da27 563d 2312 853c
000003a0: 37f4 8dba 1569 babd f684 c9bd a93f 4bbd
000003b0: 1c1c e33b 0549 57bd 1ef9 053c 6444 09bb
000003c0: 59cf 9a3d 0b9d 46bd 5da2 853d 0872 42bd
000003d0: 04f5 7d3d 038b bcbd 17e3 8fbc 8b15 113a
000003e0: 8a95 593c 7590 463d cb08 c7bd 9929 c03b
000003f0: 449a 41bd d899 3bbd a7ba 11bd b017 363c

lstm.bias_hh_l0 f4 [512]
0.07332692 0.0075446675 -0.0034525162 0.07442597 0.031484853 -0.08374728 -0.05950554 -0.072217636
-0.039724536 0.043759312 0.043322656 -0.0150541 -0.008529994 -0.062184084 0.08767986 -0.017545493
-0.07561857 0.0067454237 -0.021270867 0.07295728 0.0048980867 0.06199047 -0.04574122 0.033559557
0.0020858273 0.064497314 -0.08984849 0.02098451 -0.015063903 -0.036787163 -0.08002162 0.026741607
-0.05689911 -0.011599012 0.0362703 0.06656498 -0.06522905 0.05422921 -0.030015402 0.037526138
0.057721853 0.03580919 0.015272473 -0.020566162 -0.053031243 -0.02807196 0.009824122 0.025284765
0.06420466 0.0018451323 -0.051312782 -0.0091064125 0.055449598 -0.069509424 0.07919348 0.0001804794
-0.00859103 0.061860558 0.039001845 -0.01341565 -0.04621254 0.03485979 0.037521333 -0.029401567
0.041232605 -0.09319851 -0.012125352 0.067908645 -0.06469099 -0.027656907 0.07091657 0.016442964
-0.08522159 0.028110648 0.08073829 0.03962642 -0.06568264 0.022944173 0.03141618 0.008652706
0.0016883385 0.081813514 0.059283003 -0.055291764 -0.052397165 0.075550504 -0.024590634 0.07394435
-0.009694782 0.04939648 -0.07151956 0.039033182 -0.0072464333 0.049230702 0.028079122 -0.097317874
-0.025622353 0.047870703 0.05410039 -0.09458295 -0.041860957 -0.00024438577 -0.083976895 0.058876283
-0.08273279 0.058752824 -0.09510409 -0.07567086 0.068854034 0.007926152 -0.000109302695 -0.010888292
0.07719805 0.017658772 -0.042124167 0.07409481 0.07082706 -0.06128212 -0.011606436 -0.007863013
0.046738937 0.032526802 -0.0922569 0.07468982 0.008646103 -0.010163409 0.009256558 -0.030752147
-0.014857087 0.05117732 0.05149645 0.07044203 0.055106714 -0.016300755 0.06482419 -0.0008038285
0.0047526956 -0.07401019 -0.07240376 0.009268437 0.0070136683 -0.07226249 -0.004969552 -0.05503435
0.061853524 0.0069125793 -0.016958633 0.022870984 -0.06452882 0.03053035 -0.06819747 -0.027873302
-0.046383046 0.044086345 -0.06975936 -0.042098932 0.05421462 0.06658686 -0.061398286 -0.09820723
0.07883377 0.03525521 0.03978279 0.034316376 0.054492086 -0.026559137 -0.08293829 0.0026398841
0.039812945 0.026863776 0.0017941401 -0.021757636 -0.022297373 -0.09197669 -0.0097223 0.009428056
-0.018761205 0.025389358 -0.010127528 0.047968328 0.05690534 0.06483611 0.06149156 0.00786113
-0.018461261 0.050503198 0.008396099 0.019304696 -0.06704042 0.055753205 -0.0748942 -0.018733494
0.052246656 -0.0654475 0.04169742 -0.029001182 -0.046635788 -0.020290814 0.14098684 0.030956378
-0.07430291 -0.045378618 -0.07478189 0.019881016 0.0861399 -0.08197439 0.032489214 -0.047125723
0.08227261 -0.01739339 0.045940366 -0.08364603 0.03710208 -0.057485033 0.05389793 0.042622034
-0.052855838 -0.08047854 0.06993692 -0.042198192 -0.011753474 -0.051487748 0.036674563 -0.06814482
-0.06956231 -0.0684663 0.06480117 -0.07356914 0.041070744 -0.039112043 -0.0621872 -0.03134116
-0.056365944 0.07145981 0.01912658 0.024489943 0.08591068 -0.0045111403 0.035174333 -0.00866758
0.025761353 0.07319013 -0.055732954 -0.07627801 -0.059420712 0.028554838 0.0077757747 0.004678871
-0.07783316 0.006640376 -0.091469936 0.028585337 -0.0753694 -0.005342561 -0.02228864 -0.06912302
00000000: 6d2c 963d 4239 f73b 9c43 62bb a56c 983d
00000010: 43f6 003d b283 abbd 15bc 73bd d7e6 93bd
00000020: 32b6 22bd f73c 333d 1973 313d 79a5 76bc
00000030: 63c1 0bbc bdb4 7ebd 8091 b33d 91bb 8fbc
00000040: e9dd 9abd b708 dd3b 3e40 aebc a06a 953d
00000050: 2180 a03b b8e9 7d3d 255b 3bbd bf75 093d
00000060: 60b2 083b 2b17 843d 7c02 b8bd b5e7 ab3c
00000070: 97ce 76bc 23ae 16bd 60e2 a3bd 3711 db3c
00000080: 0b0f 69bd c809 3ebc 2b90 143d 3853 883d
00000090: cf96 85bd 731f 5e3d dce2 f5bc 02b5 193d
000000a0: c06d 6c3d a8ac 123d 6539 7a3c 5e7a a8bc
000000b0: 4a37 59bd 2bf7 e5bc 5bf5 203c ff21 cf3c
000000c0: bc7d 833d 5ed8 f13a 5a2d 52bd 1033 15bc
000000d0: 1e1f 633d f55a 8ebd 3130 a23d 123f 3d39
000000e0: 64c1 0cbc 7f61 7d3d 66c0 1f3d 51cd 5bbc
000000f0: 5c49 3dbd 24c9 0e3d f8af 193d 8edb f0bc
00000100: 85e3 283d dcde bebd 6aa9 46bc b013 8b3d
00000110: b67c 84bd bd90 e2bc b53c 913d 65b3 863c
00000120: a888 aebd 4d48 e63c 1e5a a53d 504f 223d
00000130: 9f84 86bd 6bf5 bb3c 41ae 003d 14c4 0d3c
00000140: 3d4b dd3a d88d a73d bcd2 723d 9e79 62bd
00000150: 699e 56bd 39ba 9a3d 4c72 c9bc 2370 973d
00000160: ddd6 1ebc f753 4a3d d978 92bd 42e1 1f3d
00000170: 7d73 edbb 22a6 493d 3006 e63c 984e c7bd
00000180: f8e5 d1bc 1214 443d 5f98 5d3d b5b4 c1bd
00000190: 6576 2bbd e720 80b9 14fc abbd 4228 713d
000001a0: cf6f a9bd cda6 703d efc5 c2bd 53f9 9abd
000001b0: 5803 8d3d b1dc 013c 7039 e5b8 cf64 32bc
000001c0: 031a 9e3d 21a9 903c 648a 2cbd 05bf 973d
000001d0: c70d 913d f602 7bbd ec28 3ebc ded3 00bc
000001e0: 5471 3f3d d33a 053d 30f1 bcbd faf6 983d
000001f0: 62a8 0d3c 6d84 26bc d1a8 173c edeb fbbc
00000200: 246b 73bc 4f9f 513d f1ed 523d e943 903d
00000210: 94b7 613d 2989 85bc 8cc2 843d 04b8 52ba
00000220: 80bc 9b3b a892 97bd 6c48 94bd a4da 173c
00000230: ead2 e53b 5bfe 93bd a0d7 a2bb b36b 61bd
00000240: 1f5a 7d3d eb82 e23b d5ec 8abc ee5b bb3c
00000250: b027 84bd c91a fa3c 1dab 8bbd 8d56 e4bc
00000260: 26fc 3dbd e293 343d ffdd 8ebd ee6f 2cbd
00000270: 2610 5e3d b15e 883d c57c 7bbd df20 c9bd
00000280: 9973 a13d c467 103d 47f3 223d 548f 0c3d
00000290: 1833 5f3d 8c92 d9bc 8ddb a9bd e801 2d3b
000002a0: e612 233d 6c11 dc3c 5a29 eb3a 123d b2bc
000002b0: fba8 b6bc 465e bcbd 484a 1fbc 2278 1a3c
000002c0: 19b1 99bc 58fd cf3c eeed 25bc 707a 443d
000002d0: 9315 693d cbc8 843d 93de 7b3d f8cb 003c
000002e0: 123c 97bc 71dc 4e3d cb8f 093c e224 9e3c
000002f0: 7d4c 89bd 795d 643d 2162 99bd fc76 99bc
00000300: 9700 563d 5709 86bd eaca 2a3d e393 edbc
00000310: 2b05 3fbd ec38 a6bc db5e 103e 3b98 fd3c
00000320: 202c 98bd eede 39bd 3f27 99bd 83dd a23c
00000330: 1e6a b03d 30e2 a7bd 6913 053d e706 41bd
00000340: 8b7e a83d 957c 8ebc f72b 3c3d 9c4e abbd
00000350: 5af8 173d 6d75 6bbd 13c4 5c3d 7194 2e3d
00000360: 5d7f 58bd efd1 a4bd 173b 8f3d 03d8 2cbd
00000370: a591 40bc d1e4 52bd 1138 163d 838f 8bbd
00000380: af76 8ebd 0f38 8cbd 7ab6 843d 6bab 96bd
00000390: cc39 283d f333 20bd 01b8 7ebd 975f 00bd
000003a0: fadf 66bd 8559 923d 58af 9c3c 229f c83c
000003b0: f0f1 af3d 30d2 93bb f612 103d 7702 0ebc
000003c0: 7909 d33c b5e4 953d 3d48 64bd a537 9cbd
000003d0: 2263 73bd d6eb e93c edcb fe3b 3751 993b
000003e0: fe66 9fbd 8397 d93b 9754 bbbd cc2b ea3c
000003f0: 465b 9abd a610 afbb aa96 b6bc 5f90 8dbd

fc_1.weight f4 [2, 128]
0.2185944 -0.042509153 0.05025287 -0.028510919 -0.07381575 -0.041763037 0.08026228 -0.06748916
-0.06483725 0.018150017 0.08179703 0.08967526 0.038851015 0.029750913 -0.088389106 0.029835619
-0.01566308 -0.19101132 -0.042396665 -0.025862396 -0.04600303 0.058283914 0.024218567 0.03978181
-0.06416915 0.06465296 0.048780866 0.023835655 -0.04080427 -0.09313745 -0.002416374 0.014455168
0.06033983 0.00960138 -0.04670191 0.06486109 0.016863829 0.04473247 0.09194417 0.0053655533
0.06381831 -0.009354211 0.069412544 0.004043117 0.076453336 0.042546414 -0.009605757 -0.011230469
0.020775158 -0.05479844 -0.040199313 0.044922154 -0.055581298 0.022726411 0.07892263 0.038693495
0.19849145 0.057602517 -0.014865644 -0.07200807 -0.052571848 -0.035595674 -0.0494252 0.17729242
-0.044519894 0.035192307 0.07612394 -0.05524296 -0.0019607528 0.02835324 0.009581375 -0.01816503
0.29675758 0.057597745 -0.04795629 -0.012785075 0.066509835 -0.08447537 -0.0461311 0.016176287
-0.07314711 -0.013112336 -0.03387279 -0.0374293 -0.07411801 0.025531461 0.038405888 0.018396728
0.009496336 0.05535901 -0.03748309 0.018690407 -0.02375482 0.023794614 0.07040588 0.06736031
0.05906046 0.008647688 0.07961442 0.05211474 0.004588873 -0.09258605 -0.08652238 -0.041719284
0.06667395 0.00038629526 -0.064319916 0.006164886 0.15308529 -0.020089032 -0.049970575 -0.08629193
-0.090720125 -0.018088073 -0.093350984 -0.001459159 -0.041693173 0.07188822 -0.054700382 0.04741759
0.040149465 0.054188363 0.0024583742 -0.04827889 -0.03857133 0.05338099 -0.03657028 0.058196537
0.030631434 -0.01623483 -0.07738997 0.024695463 0.035517275 -0.02463539 -0.06835799 0.069838755
-0.05303416 0.02444435 -0.04972016 -0.09348429 -0.037587922 -0.08248739 0.033682995 0.025268361
-0.014207891 -0.25116107 -0.040488176 -0.06530758 -0.04221932 0.024620509 0.07896628 -0.07726533
0.055235766 -0.065008 0.032302912 0.040353306 -0.04367763 0.026103457 -0.017044615 0.06696832
-0.02584786 0.31154716 0.05869337 0.06395651 -0.03448223 -0.07776628 -0.26063606 -0.08792802
0.039171536 -0.0030259416 -0.058641423 -0.07045492 0.00049901754 0.06191304 0.04889015 -0.064274155
0.025162803 0.042622183 -0.029061835 -0.07797013 0.04105094 0.067182325 0.0168024 -0.04315013
0.3183036 -0.03433766 0.07371373 -0.029169127 0.075339414 -0.08040432 0.019784598 -0.053685874
-0.050888024 -0.061841454 -0.047060125 0.074906416 0.04674985 -0.07961602 0.17767319 0.07183444
0.12570107 -0.077198066 0.06457109 -0.060408983 0.018674806 -0.024902204 -0.107152954 0.21265379
-0.088950075 -0.07358531 -0.089701526 -0.019964583 0.0051173167 -0.056740038 0.020815305 -0.013838564
0.07899183 -0.015005557 -0.017852448 -0.009520665 -0.029401988 -0.048614778 -0.03094379 -0.007418162
-0.007722944 -0.067694105 -0.063626945 0.05099664 -0.055325557 -0.01782786 0.04390838 0.08304555
-0.06550329 -0.03577015 -0.029609255 0.04178474 0.051232833 0.008435147 -0.0024249216 0.03364491
0.048989818 -0.019245706 -0.034723155 -0.03870721 -0.017035283 0.06781312 -0.025218021 0.060944058
-0.02681322 -0.07607827 0.027228577 -0.051151447 -0.0250586 0.0616303 -0.015019916 -0.080226734
00000000: 36d7 5f3e 141e 2ebd f4d5 4d3d bb8f e9bc
00000010: b62c 97bd b80f 2bbd 8d60 a43d c237 8abd
00000020: 64c9 84bd 58af 943c 3485 a73d aaa7 b73d
00000030: 3e22 1f3d 30b8 f33c 5905 b5bd d469 f43c
00000040: dc4f 80bc 7998 43be 20a8 2dbd 60dd d3bc
00000050: ac6d 3cbd 1dbb 6e3d 0466 c63c 40f2 223d
00000060: 1e6b 83bd c568 843d 72ce 473d fe42 c33c
00000070: 6122 27bd d9be bebd 075c 1ebb 5ed5 6c3c
00000080: e626 773d 1b4f 1d3c 814a 3fbd e4d5 843d
00000090: 0326 8a3c 6539 373d 3a4d bc3d 86d1 af3b
000000a0: 2db3 823d 6842 19bc 2a28 8e3d 207c 843b
000000b0: 9193 9c3d 2645 2e3d 7761 1dbc 0000 38bc
000000c0: aa30 aa3c 5474 60bd 09a8 24bd 4b00 383d
000000d0: 37a9 63bd bd2c ba3c 30a2 a13d 127d 1e3d
000000e0: 5841 4b3e 9ef0 6b3d 088f 73bc f878 93bd
000000f0: 9455 57bd c5cc 11bd 1472 4abd 258c 353e
00000100: 7e5a 36bd cf25 103d dee6 9b3d 7146 62bd
00000110: f97f 00bb 0e45 e83c 33fb 1c3c d4ce 94bc
00000120: 9cf0 973e 9deb 6b3d d16d 44bd 7e78 51bc
00000130: 4f36 883d 6c01 adbd f7f3 3cbd 2284 843c
00000140: 27ce 95bd 20d5 56bc 32be 0abd 774f 19bd
00000150: 2fcb 97bd 5b27 d13c 7e4f 1d3d bcb4 963c
00000160: 8596 1b3c 21c0 623d de87 19bd a01c 993c
00000170: 7899 c2bc ecec c23c f530 903d 34f4 893d
00000180: 62e9 713d 08af 0d3c e30c a33d 4476 553d
00000190: 425e 963b c19d bdbd a532 b1bd d7e1 2abd
000001a0: 5a8c 883d ac87 ca39 29ba 83bd d002 ca3b
000001b0: 64c2 1c3e c191 a4bc f2ad 4cbd d3b9 b0bd
000001c0: 79cb b9bd 702d 94bc cd2e bfbd 4041 bfba
000001d0: 76c6 2abd 223a 933d 820d 60bd f238 423d
000001e0: c473 243d 9ef4 5d3d ad1c 213b 16c0 45bd
000001f0: f9fc 1dbd 06a6 5a3d b8ca 15bd 7e5f 6e3d
00000200: c6ee fa3c e8fe 84bc a27e 9ebd 244e ca3c
00000210: 907a 113d 28d0 c9bc 46ff 8bbd 9f07 8f3d
00000220: 593a 59bd 843f c83c 5ea7 4bbd b174 bfbd
00000230: cbf5 19bd 26ef a8bd 2ef7 093d 98ff ce3c
00000240: 37c8 68bc 2f98 80be eed6 25bd fbbf 85bd
00000250: 2aee 2cbd f3b0 c93c 13b9 a13d 493d 9ebd
00000260: e63e 623d ea22 85bd 0f50 043d 8249 253d
00000270: 51e7 32bd ebd6 d53c 26a1 8bbc b026 893d
00000280: e4be d3bc 1c83 9f3e 7668 703d a1fb 823d
00000290: 3d3d 0dbd ed43 9fbd 1772 85be 9b13 b4bd
000002a0: 5572 203d e04e 46bb fd31 70bd ab4a 90bd
000002b0: 80d0 023a 8798 7d3d 0a41 483d 2ba2 83bd
000002c0: 3922 ce3c 9994 2e3d 1613 eebc ceae 9fbd
000002d0: 0825 283d e396 893d 30a5 893c 31be 30bd
000002e0: b1f8 a23e a5a5 0cbd 39f7 963d 18f4 eebc
000002f0: 8d4b 9a3d 05ab a4bd 4f13 a23c b8e5 5bbd
00000300: f66f 50bd 774d 7dbd 1ec2 40bd 8968 993d
00000310: c57c 3f3d b90d a3bd f6ef 353e ef1d 933d
00000320: c8b7 003e 051a 9ebd d93d 843d 696f 77bd
00000330: e8fb 983c b5ff cbbc 0273 dbbd eac1 593e
00000340: 752b b6bd e5b3 96bd 6fb5 b7bd c48c a3bc
00000350: 2aaf a73b 3e68 68bd dc84 aa3c 25bb 62bc
00000360: 78c6 a13d ded9 75bc 4c3f 92bc 90fc 1bbc
00000370: 70dc f0bc 4a20 47bd d57d fdbc 0e14 f3bb
00000380: c010 fdbb 35a3 8abd d84e 82bd dae1 503d
00000390: 0d9d 62bd bb0b 92bc 46d9 333d c913 aa3d
000003a0: 9726 86bd b983 12bd 1c8f f2bc 7a26 2b3d
000003b0: 85d9 513d 9233 0a3c 6feb 1ebb 3fcf 093d
000003c0: 8ca9 483d 2ca9 9dbc de39 0ebd 748b 1ebd
000003d0: 948d 8bbc 9be1 8a3d 0696 cebc 7aa0 793d
000003e0: 66a7 dbbc edce 9bbd 770e df3c 2e84 51bd
000003f0: b147 cdbc 0e70 7c3d 1816 76bc ea4d a4bd

fc_1.bias f4 [2]
0.061935015 0.00408767
00000000: 92af 7d3d dcf1 853b

fc.weight f4 [2, 32]
0.13290922 -0.1039131 -0.008317471 0.0148409605 -0.07137832 0.08003415 0.011595562 -0.10035683
-0.14012587 -0.1409039 -0.011737183 0.07885422 0.16917644 0.13509266 0.11712013 -0.003615573
0.03768894 0.09001337 0.16975205 -0.014113203 0.13888662 0.106772766 0.17589138 0.026469633
0.048000857 0.12752654 0.1759922 -0.12590116 0.13124587 -0.055416845 0.13795157 -0.117520735
-0.12785614 0.07079214 -0.06664669 0.10712136 0.033454433 0.008545607 -0.14557481 0.09162344
0.15895377 -0.060394138 -0.017306238 0.0803663 -0.10250726 -0.100681104 -0.015155375 -0.056101777
0.1638648 -0.077077225 0.01664643 -0.011681825 -0.13264014 0.10023846 -0.09557638 -0.1022197
0.07437955 -0.044808045 -0.0015138984 -0.003987655 -0.15567133 0.019449145 -0.031953692 -0.075761065
00000000: 5b19 083e 64d0 d4bd 0046 08bc 8027 733c
00000010: cc2e 92bd f2e8 a33d 50fb 3d3c e287 cdbd
00000020: 287d 0fbe 1d49 10be 504d 40bc 527e a13d
00000030: 973c 2d3e bb55 0a3e aedc ef3d 40f3 6cbb
00000040: b85f 1a3d ee58 b83d 7bd3 2d3e 103b 67bc
00000050: 4b38 0e3e aeab da3d df1c 343e d8d6 d83c
00000060: 8c9c 443d 5196 023e 4d37 343e 3cec 00be
00000070: 5165 063e c6fc 62bd 2d43 0d3e b6ae f0bd
00000080: b8ec 02be 78fb 903d 0f7e 88bd 7262 db3d
00000090: 8407 093d e002 0c3c 9011 15be 12a5 bb3d
000000a0: c7c4 223e d85f 77bd d0c5 8dbc 1697 a43d
000000b0: 54ef d1bd e531 cebd 404e 78bc faca 65bd
000000c0: 2dcc 273e aada 9dbd 185e 883c 2065 3fbc
000000d0: d1d2 07be d249 cd3d 8dbd c3bd 9058 d1bd
000000e0: 4e54 983d a488 37bd 006e c6ba e0aa 82bb
000000f0: 4e68 1fbe d053 9f3c e0e1 02bd 9e28 9bbd

fc.bias f4 [2]
0.11114542 0.038736746
00000000: 36a0 e33d 6caa 1e3d
